…
  model.add(Convolution2D(64,3,3, activation='relu'))
WARNING:tensorflow:From /home/winterslong/anaconda3/envs/carnd-term1-gpu-tf18-py36/lib/python3.6/site-packages/keras/backend/tensorflow_backend.py:1255: calling reduce_prod (from tensorflow.python.ops.math_ops) with keep_dims is deprecated and will be removed in a future version.
Instructions for updating:
keep_dims is deprecated, use keepdims instead
_________________________________________________________________
Layer (type)                 Output Shape              Param #   
=================================================================
lambda_1 (Lambda)            (None, 160, 320, 3)       0         
_________________________________________________________________
cropping2d_1 (Cropping2D)    (None, 90, 320, 3)        0         
_________________________________________________________________
conv2d_1 (Conv2D)            (None, 43, 158, 24)       1824      
_________________________________________________________________
conv2d_2 (Conv2D)            (None, 20, 77, 36)        21636     
_________________________________________________________________
conv2d_3 (Conv2D)            (None, 8, 37, 48)         43248     
_________________________________________________________________
conv2d_4 (Conv2D)            (None, 6, 35, 64)         27712     
_________________________________________________________________
conv2d_5 (Conv2D)            (None, 4, 33, 64)         36928     
_________________________________________________________________
flatten_1 (Flatten)          (None, 8448)              0         
_________________________________________________________________
dense_1 (Dense)              (None, 100)               844900    
_________________________________________________________________
dense_2 (Dense)              (None, 50)                5050      
_________________________________________________________________
dense_3 (Dense)              (None, 10)                510       
_________________________________________________________________
dense_4 (Dense)              (None, 1)                 11        
=================================================================
Total params: 981,819
Trainable params: 981,819
Non-trainable params: 0
_________________________________________________________________
WARNING:tensorflow:From /home/winterslong/anaconda3/envs/carnd-term1-gpu-tf18-py36/lib/python3.6/site-packages/keras/backend/tensorflow_backend.py:1340: calling reduce_mean (from tensorflow.python.ops.math_ops) with keep_dims is deprecated and will be removed in a future version.
…
